data/model.pkl_10.npy (npy, 5120 bytes, 1 tensors)

array f8 [630]
0	0x3fcfb1fb1fb1fb20	0.24761904761904763
1	0x3fd5555555555555	0.3333333333333333
2	0x3fe0c30c30c30c31	0.5238095238095238
3	0x3fe1ad1ad1ad1ad2	0.5523809523809524
4	0x3fd8fd8fd8fd8fd9	0.3904761904761905
5	0x3fd8fd8fd8fd8fd9	0.3904761904761905
6	0x3fe15f15f15f15f1	0.5428571428571428
7	0x3fe63f63f63f63f6	0.6952380952380952
8	0x3fe5a35a35a35a36	0.6761904761904762
9	0xbfe9fa7e9fa7e9fa	-0.8118279569892473
10	0xbfb4356d1408e783	-0.07894021739130434
11	0xbfe05f417d05f418	-0.5116279069767442
12	0xbfdcd116c90c1015	-0.450261780104712
13	0xbfe87763dfdb43bb	-0.7645739910313901
14	0x3fcfb1fb1fb1fb20	0.24761904761904763
15	0xbfd101ca4b3055ee	-0.26573426573426573
16	0xbfdd2e6cc44f95e3	-0.45595854922279794
17	0xbfe4dfc9bf937f27	-0.652317880794702
18	0x3fd1111111111111	0.26666666666666666
19	0x3fbfb1fb1fb1fb20	0.12380952380952381
20	0xbfe05f417d05f418	-0.5116279069767442
21	0xbfd2e63a6a860370	-0.2953020134228188
22	0xbfe6be69c8fde261	-0.7107438016528925
23	0xbfe72e5cb972e5cc	-0.7244094488188977
24	0xbfd5bc609a90e7d9	-0.33962264150943394
25	0x3fe5555555555555	0.6666666666666666
26	0xbfe75ccab1afb64b	-0.7300771208226221
27	0xbfe62ce98b3a62cf	-0.6929824561403509
28	0xbfe53b13b13b13b1	-0.6634615384615384
29	0x3fbfb1fb1fb1fb20	0.12380952380952381
30	0x3fc999999999999a	0.2
31	0x3fd7297297297297	0.3619047619047619
32	0x3fce79e79e79e79e	0.23809523809523808
33	0x3fd7297297297297	0.3619047619047619
34	0x3fde79e79e79e79e	0.47619047619047616
35	0x3fbd2a2067b23a54	0.11392405063291139
36	0x3fd77e613716aefd	0.3670886075949367
37	0x3fd9ec8e951033d9	0.4050632911392405
38	0x3fc84dc5abbf309c	0.189873417721519
39	0x3fc84dc5abbf309c	0.189873417721519
40	0x3fd91d2a2067b23a	0.3924050632911392
41	0x3fe309b8b577e613	0.5949367088607594
42	0x3fe23a5440cf6475	0.569620253164557
43	0xbfeb7833622de0ce	-0.8584229390681004
44	0xbfd3a642c8590b21	-0.3070227581521739
45	0xbfe43dea9143dea9	-0.6325581395348837
46	0xbfe2c3af94c65dd2	-0.5863874345549738
47	0xbfea64194ff6cba6	-0.8247191011235955
48	0x0000000000000000	0.0
49	0xbfdca4b3055ee191	-0.44755244755244755
50	0xbfe2e6cc44f95e2d	-0.5906735751295337
51	0xbfe7a10f421e843d	-0.7384105960264901
52	0x3f99ec8e951033d9	0.02531645569620253
53	0xbfc21642c8590b21	-0.14130434782608695
54	0xbfe43dea9143dea9	-0.6325581395348837
55	0xbfde112e63a6a860	-0.4697986577181208
56	0xbfe9092b04efc795	-0.7823691460055097
57	0xbfe95d657595d657	-0.7926509186351706
58	0xbfe019c2d14ee4a1	-0.5031446540880503
59	0x3fe1d2a2067b23a5	0.5569620253164557
60	0xbfe980543c8b8447	-0.7969151670951157
61	0xbfe89bb226ec89bb	-0.7690058479532164
62	0xbfe7e5be5be5be5c	-0.7467948717948718
63	0xbfc21642c8590b21	-0.14130434782608695
64	0xbfae79e79e79e79e	-0.05952380952380952
65	0x3fc3716aefcc26e3	0.1518987341772152
66	0xbf8999999999999a	-0.0125
67	0x3fc3716aefcc26e3	0.1518987341772152
68	0x3fd3716aefcc26e3	0.3037974683544304
69	0x3fd2492492492492	0.2857142857142857
70	0x3fd5075075075075	0.32857142857142857
71	0x3fb5f15f15f15f16	0.08571428571428572
72	0x3fb5f15f15f15f16	0.08571428571428572
73	0x3fd41d41d41d41d4	0.3142857142857143
74	0x3fe15f15f15f15f1	0.5428571428571428
75	0x3fe0750750750750	0.5142857142857142
76	0xbfebfc546a6ff152	-0.8745519713261649
77	0xbfd8b3a62ce98b3a	-0.38596491228070173
78	0xbfe594d653594d65	-0.6744186046511628
79	0xbfe445b24304055c	-0.6335078534031413
80	0xbfeafa42953cd7d2	-0.8430493273542601
81	0xbfbd2a2067b23a54	-0.11392405063291139
82	0xbfe055ee19101ca5	-0.5104895104895105
83	0xbfe464ceec1a874c	-0.6373056994818653
84	0xbfe895312a6254c5	-0.7682119205298014
85	0xbfb745d1745d1746	-0.09090909090909091
86	0xbfce9bd37a6f4dea	-0.2391304347826087
87	0xbfe594d653594d65	-0.6744186046511628
88	0xbfe0f768ce2cabd0	-0.5302013422818792
89	0xbfe9d44685fe96ec	-0.8071625344352618
90	0xbfea1ee87ba1ee88	-0.8162729658792651
91	0xbfe1e97588daf7f3	-0.559748427672956
92	0x3fe0000000000000	0.5
93	0xbfea3ddc76752432	-0.8200514138817481
94	0xbfe973465cd19734	-0.7953216374269005
95	0xbfe8d20d20d20d21	-0.7756410256410257
96	0xbfce9bd37a6f4dea	-0.2391304347826087
97	0xbfc5555555555555	-0.16666666666666666
98	0x3fa5f15f15f15f16	0.04285714285714286
99	0xbfc0000000000000	-0.125
100	0x3fa5f15f15f15f16	0.04285714285714286
101	0x3fcb6db6db6db6db	0.21428571428571427
102	0x3faeb851eb851eb8	0.06
103	0xbfcc000000000000	-0.21875
104	0xbfcc000000000000	-0.21875
105	0x3fa47ae147ae147b	0.04
106	0x3fd70a3d70a3d70a	0.36
107	0x3fd47ae147ae147b	0.32
108	0xbfed21f3277487cd	-0.910394265232975
109	0xbfe1f706ada2811d	-0.5614045516304348
110	0xbfe88ee23b88ee24	-0.7674418604651163
111	0xbfe79f7f5470961d	-0.7382198952879581
112	0xbfec699d4606e34d	-0.8878923766816144
113	0xbfd77e613716aefd	-0.3670886075949367
114	0xbfe4cfaa11e6efe3	-0.6503496503496503
115	0xbfe7b5b85f80a9c8	-0.7409326424870466
116	0xbfeab3b5676aced6	-0.8344370860927153
117	0xbfd67109f959c428	-0.35064935064935066
118	0xbfdd37a6f4de9bd3	-0.45652173913043476
119	0xbfe88ee23b88ee24	-0.7674418604651163
120	0xbfe54301b7d6c3de	-0.6644295302013423
121	0xbfeb97a01691473b	-0.8622589531680441
122	0xbfebccef33bccef3	-0.868766404199475
123	0xbfe5efe63d2eb11b	-0.6855345911949685
124	0x3fd3333333333333	0.3
125	0xbfebe30b300a8791	-0.87146529562982
126	0xbfeb5256d495b525	-0.8538011695906432
127	0xbfeadf2df2df2df3	-0.8397435897435898
128	0xbfdd37a6f4de9bd3	-0.45652173913043476
129	0xbfd9e79e79e79e7a	-0.40476190476190477
130	0xbfd03d226357e16f	-0.2537313432835821
131	0xbfd8000000000000	-0.375
132	0xbfd03d226357e16f	-0.2537313432835821
133	0xbfb745d1745d1746	-0.09090909090909091
134	0xbfd1000000000000	-0.265625
135	0xbfd1000000000000	-0.265625
136	0xbf95555555555555	-0.020833333333333332
137	0x3fd46cefa8d9df52	0.3191489361702128
138	0x3fd1b3bea3677d47	0.2765957446808511
139	0xbfed4dfe2a3537f9	-0.9157706093189965
140	0xbfe2ce98b3a62cea	-0.5877192982456141
141	0xbfe90130d190130d	-0.7813953488372093
142	0xbfe8202ae3da78a1	-0.7539267015706806
143	0xbfeca0b7ad586506	-0.8946188340807175
144	0xbfd9ec8e951033d9	-0.4050632911392405
145	0xbfe57b864407292d	-0.6713286713286714
146	0xbfe8350e97366228	-0.7564766839378239
147	0xbfeb05160a2c1458	-0.8443708609271523
148	0xbfd8ef606a63bd82	-0.38961038961038963
149	0xbfdf4de9bd37a6f5	-0.4891304347826087
150	0xbfe90130d190130d	-0.7813953488372093
151	0xbfe5e7f24149e113	-0.6845637583892618
152	0xbfebdb53ec40e1ad	-0.8705234159779615
153	0xbfec0d7035c0d703	-0.8766404199475065
154	0xbfe68a7725080ce1	-0.7044025157232704
155	0x3fd0572620ae4c41	0.2553191489361702
156	0xbfec223898adbce0	-0.8791773778920309
157	0xbfeb9a32e68cb9a3	-0.8625730994152047
158	0xbfeb2df2df2df2df	-0.8493589743589743
159	0xbfdf4de9bd37a6f5	-0.4891304347826087
160	0xbfdc30c30c30c30c	-0.44047619047619047
161	0xbfd31abf0b7672a0	-0.29850746268656714
162	0xbfda666666666666	-0.4125
163	0xbfd31abf0b7672a0	-0.29850746268656714
164	0xbfc29e4129e4129e	-0.14545454545454545
165	0x0000000000000000	0.0
166	0x3fd0000000000000	0.25
167	0x3fe0000000000000	0.5
168	0x3fde000000000000	0.46875
169	0xbfec546a6ff151aa	-0.8853046594982079
170	0xbfdc11f7047dc11f	-0.43859649122807015
171	0xbfe679737f679738	-0.7023255813953488
172	0xbfe5470961d7ca63	-0.6649214659685864
173	0xbfeb687763dfdb44	-0.8565022421524664
174	0xbfc84dc5abbf309c	-0.189873417721519
175	0xbfe1ada67d508f37	-0.5524475524475524
176	0xbfe5637b5b85f80b	-0.6683937823834197
177	0xbfe937f26fe4dfca	-0.7880794701986755
178	0xbfc59c427e56710a	-0.16883116883116883
179	0xbfd37a6f4de9bd38	-0.30434782608695654
180	0xbfe679737f679738	-0.7023255813953488
181	0xbfe24149e112e63a	-0.5704697986577181
182	0xbfea5bae315dcbd0	-0.8236914600550964
183	0xbfea9fea7fa9fea8	-0.8320209973753281
184	0xbfe31e97588daf7f	-0.5974842767295597
185	0x3fdd000000000000	0.453125
186	0xbfeabc3747bb8ecf	-0.8354755784061697
187	0xbfea02fe80bfa030	-0.8128654970760234
188	0xbfe96f96f96f96f9	-0.7948717948717948
189	0xbfd37a6f4de9bd38	-0.30434782608695654
190	0xbfce79e79e79e79e	-0.23809523809523808
191	0xbfa6ece540f4898d	-0.04477611940298507
192	0xbfc999999999999a	-0.2
193	0xbfa6ece540f4898d	-0.04477611940298507
194	0x3fc2000000000000	0.140625
195	0x3fd0000000000000	0.25
196	0x3fe0000000000000	0.5
197	0x3fde000000000000	0.46875
198	0xbfec546a6ff151aa	-0.8853046594982079
199	0xbfdc11f7047dc11f	-0.43859649122807015
200	0xbfe679737f679738	-0.7023255813953488
201	0xbfe5470961d7ca63	-0.6649214659685864
202	0xbfeb687763dfdb44	-0.8565022421524664
203	0xbfc84dc5abbf309c	-0.189873417721519
204	0xbfe1ada67d508f37	-0.5524475524475524
205	0xbfe5637b5b85f80b	-0.6683937823834197
206	0xbfe937f26fe4dfca	-0.7880794701986755
207	0xbfc59c427e56710a	-0.16883116883116883
208	0xbfd37a6f4de9bd38	-0.30434782608695654
209	0xbfe679737f679738	-0.7023255813953488
210	0xbfe24149e112e63a	-0.5704697986577181
211	0xbfea5bae315dcbd0	-0.8236914600550964
212	0xbfea9fea7fa9fea8	-0.8320209973753281
213	0xbfe31e97588daf7f	-0.5974842767295597
214	0x3fdd000000000000	0.453125
215	0xbfeabc3747bb8ecf	-0.8354755784061697
216	0xbfea02fe80bfa030	-0.8128654970760234
217	0xbfe96f96f96f96f9	-0.7948717948717948
218	0xbfd37a6f4de9bd38	-0.30434782608695654
219	0xbfce79e79e79e79e	-0.23809523809523808
220	0xbfa6ece540f4898d	-0.04477611940298507
221	0xbfc999999999999a	-0.2
222	0xbfa6ece540f4898d	-0.04477611940298507
223	0x3fc2000000000000	0.140625
224	0x3fd5555555555555	0.3333333333333333
225	0x3fd2aaaaaaaaaaab	0.2916666666666667
226	0xbfed3f4fd3f4fd3f	-0.9139784946236559
227	0xbfe286bca1af286c	-0.5789473684210527
228	0xbfe8db169f8db16a	-0.7767441860465116
229	0xbfe7f5470961d7ca	-0.7486910994764397
230	0xbfec8e598ae7e473	-0.8923766816143498
231	0xbfd91d2a2067b23a	-0.3924050632911392
232	0xbfe5423cddfc6b6a	-0.6643356643356644
233	0xbfe80a9c84a47a08	-0.7512953367875648
234	0xbfeae9f5d3eba7d7	-0.8410596026490066
235	0xbfd81a98ef606a64	-0.37662337662337664
236	0xbfde9bd37a6f4dea	-0.4782608695652174
237	0xbfe8db169f8db16a	-0.7767441860465116
238	0xbfe5b0f768ce2cac	-0.6778523489932886
239	0xbfebc4c2a50658dc	-0.8677685950413223
240	0xbfebf7efdfbf7efe	-0.8740157480314961
241	0xbfe656f1826a439f	-0.6981132075471698
242	0x3fd1555555555555	0.2708333333333333
243	0xbfec0d2975ccab1b	-0.8766066838046273
244	0xbfeb823ee08fb824	-0.8596491228070176
245	0xbfeb13b13b13b13b	-0.8461538461538461
246	0xbfde9bd37a6f4dea	-0.4782608695652174
247	0xbfdb6db6db6db6db	-0.42857142857142855
248	0xbfd226357e16ece5	-0.2835820895522388
249	0xbfd999999999999a	-0.4
250	0xbfd226357e16ece5	-0.2835820895522388
251	0xbfc04a7904a7904a	-0.12727272727272726
252	0xbfae1e1e1e1e1e1e	-0.058823529411764705
253	0xbfee2a3537f8a8d5	-0.942652329749104
254	0xbfe7047dc11f7048	-0.7192982456140351
255	0xbfeb3cb9bfb3cb9c	-0.8511627906976744
